export/LeNet.pth (torch, 444306 bytes, 12 tensors)

conv1.weight f4 [6, 3, 5, 5]
-0.12244886 0.24709842 0.12857707 0.24963969 -0.04115247 0.10476926 0.12984425 0.21828625
0.15703109 -0.0719245 -0.16407087 -0.13379343 -0.030355463 0.14846736 0.07229 -0.095976084
-0.13738543 -0.20310009 0.10635183 0.37272033 -0.17104732 0.13450934 -0.07809897 0.006071876
0.11726491 0.12029984 0.009884453 0.11052971 0.26540223 0.05274975 -0.157519 0.123006
0.22295368 0.1791889 0.054413076 -0.07069366 -0.14224693 0.07717784 0.30027452 0.29874146
0.13524342 -0.1959725 -0.03384537 0.15944737 0.36180794 -0.047068637 -0.07588666 -0.22144824
-0.18941219 0.10051714 0.091348544 0.07868193 0.3243531 0.010099529 0.007612398 0.029645046
-0.12046875 0.079099394 0.28173804 -0.05965512 -0.06994701 -0.23538452 0.028349029 0.24248263
0.21569572 -0.07459636 -0.053892214 -0.15187065 0.097187825 0.48863894 0.08410176 -0.17028214
0.00995394 -0.08685921 0.15692194 0.049951397 0.23418212 0.14900723 0.17502292 0.009141884
0.015446071 0.27803925 0.12370148 0.23817348 0.24715516 0.016465787 -0.004688632 0.059326913
-0.031122359 -0.0011248678 -0.08802325 -0.09699893 -0.17903095 -0.41304648 -0.13724758 -0.17566179
-0.12511294 -0.05266539 -0.2116194 -0.13625814 0.03939413 0.017499747 0.3748817 0.3613495
0.11054392 0.23300043 0.2008424 0.24749106 0.10411093 0.3424472 0.045844078 -0.05188304
-0.14532885 -0.11159438 0.048277576 0.020756852 -0.20810848 -0.37668106 -0.41535166 -0.28507447
-0.020120813 -0.19212756 -0.14143205 -0.10148549 0.0442031 -0.020526567 0.10007594 0.17438297
0.34476355 0.22595689 0.013783437 0.20564161 0.26292464 0.07788286 0.16195297 0.10076399
-0.024920534 -0.1556264 -0.016495958 0.053380314 -0.11936818 -0.18476701 -0.3773441 -0.22303301
-0.15848862 -0.122494034 -0.0024412358 -0.16595277 -0.03122709 -0.034107074 -0.08517052 0.013257842
0.0023001963 0.03410528 0.2253575 -0.06920664 0.2522823 0.37428853 -0.06267238 0.150814
-0.101915136 0.13854654 0.3702317 -0.2839406 -0.21416138 -0.03105686 0.26648816 0.17560782
-0.1749222 -0.23994434 0.13709341 0.073656484 0.042915136 -0.28061724 -0.04534956 0.0006475903
-0.07719692 0.19646502 0.027313445 0.11704476 -0.19311231 0.13288242 0.18126126 0.10085245
-0.02896657 -0.116266996 0.37358096 0.16528004 -0.03873087 -0.28888422 -0.07309075 0.12043141
0.094762325 -0.18330507 -0.22752017 0.17388135 0.07229684 0.07462726 -0.22902083 -0.18062335
-0.040694047 -0.13391066 0.19354424 0.15782568 0.2509333 -0.013196056 0.071363315 0.30798656
0.10873416 -0.041414406 -0.14982592 0.259787 0.35724875 -0.040550426 -0.24130034 0.024988517
0.19514474 0.20595096 -0.29437503 -0.15771428 -0.13914517 0.2443368 -0.05726778 -0.16033788
-0.11563776 0.04634728 0.06593197 -0.037205447 -0.1316947 0.07278709 0.07758569 0.21482916
-0.10197206 -0.20772646 -0.10779504 0.3898041 0.2938867 -0.33049482 -0.15169738 -0.06263315
-0.03977817 0.29197946 -0.19992481 -0.3087851 -0.15025574 0.007273309 0.28730512 0.091287985
0.07912746 -0.2268063 0.114510305 0.08458641 -0.004715556 0.16559723 0.028453207 0.29645354
00000000: 78c6 fabd 5e07 7d3e b5a9 033e 8ca1 7f3e
00000010: 7e8f 28bd 4491 d63d e4f5 043e 6e86 5f3e
00000020: c2cc 203e 274d 93bd 3202 28be 2501 09be
00000030: 05ac f8bc d407 183e c80c 943d 1c8f c4bd
00000040: c4ae 0cbe 78f9 4fbe fdce d93d 33d5 be3e
00000050: 0727 2fbe d1bc 093e 5af2 9fbd 96f6 c63b
00000060: 9628 f03d c35f f63d 67f2 213c 675d e23d
00000070: cde2 873e 1f10 583d a94c 21be 92ea fb3d
00000080: f84d 643e 4c7d 373e 3fe0 5e3d d6c7 90bd
00000090: 2ea9 11be 6a0f 9e3d 95bd 993e a4f4 983e
000000a0: 407d 0a3e 04ad 48be 71a1 0abd 2c46 233e
000000b0: e43e b93e 0bcb 40bd 776a 9bbd 54c3 62be
000000c0: 45f5 41be eedb cd3d f214 bb3d fe23 a13d
000000d0: 9c11 a63e 7f78 253c 6c71 f93b 2bda f23c
000000e0: 52b8 f6bd ddfe a13d f83f 903e ed58 74bd
000000f0: 6140 8fbd a408 71be 393c e83c 5e4d 783e
00000100: 57df 5c3e fac5 98bd 15be 5cbd fb83 1bbe
00000110: 690a c73d e22e fa3e 8b3d ac3d 715e 2ebe
00000120: da15 233c 3ee3 b1bd 25b0 203e d699 4c3d
00000130: 70cd 6f3e 5a95 183e 3539 333e d7c7 153c
00000140: 8411 7d3c 295b 8e3e 3457 fd3d c0e3 733e
00000150: 3e16 7d3e 42e3 863c 19a3 99bb c700 733d
00000160: 51f4 febc 4d70 93ba 8945 b4bd 60a7 c6bd
00000170: e453 37be d47a d3be a18a 0cbe afe0 33be
00000180: 9b1d 00be aab7 57bd c2b2 58be 4187 0bbe
00000190: bd5b 213d a15b 8f3c 7ff0 bf3e cd02 b93e
000001a0: da64 e23d aa97 6e3e a1a9 4d3e 4c6e 7d3e
000001b0: 1c38 d53d 3d55 af3e 00c7 3b3d 5083 54bd
000001c0: 16d1 14be 988b e4bd b5be 453d 460a aa3c
000001d0: 641a 55be 57dc c0be f9a8 d4be 48f5 91be
000001e0: 67d4 a4bc 16bd 44be 90d3 10be a0d7 cfbd
000001f0: 4f0e 353d 5527 a8bc 9df4 cc3d 7391 323e
00000200: d984 b03e 3e61 673e edd3 613c b793 523e
00000210: 0f9e 863e 0d81 9f3d 00d7 253e 5a5d ce3d
00000220: 2626 ccbc 875c 1fbe 8822 87bc 51a5 5a3d
00000230: 4e77 f4bd 9033 3dbe 3f33 c1be c462 64be
00000240: d74a 22be 27de fabd 24fd 1fbb 86ef 29be
00000250: f4cf ffbc dcb3 0bbd e26d aebd 6b37 593c
00000260: e4be 163b fab1 0b3d 1ec4 663e 36bc 8dbd
00000270: 252b 813e bfa2 bf3e 605a 80bd fc6e 1a3e
00000280: e2b8 d0bd 25df 0d3e 028f bd3e aa60 91be
00000290: 1f4d 5bbe f56a febc 2371 883e 89d2 333e
000002a0: ce1e 33be f8b3 75be 3762 0c3e 36d9 963d
000002b0: c8c7 2f3d 10ad 8fbe 76c0 39bd 0dc3 293a
000002c0: 6b19 9ebd 202e 493e 72c0 df3c 2ab5 ef3d
000002d0: 3cbf 45be 5412 083e 8d9c 393e bb8b ce3d
000002e0: 4d4b edbc 641d eebd 0146 bf3e 2c3f 293e
000002f0: 43a4 1ebd a2e8 93be 9ab0 95bd bea4 f63d
00000300: c012 c23d 53b4 3bbe 0cfb 68be f40d 323e
00000310: 5e10 943d 2dd6 983d 7084 6abe 54f5 38be
00000320: cdae 26bd e01f 09be 7630 463e 0e9d 213e
00000330: 547a 803e 4534 58bc ee26 923d 6ab0 9d3e
00000340: 04b0 de3d 27a2 29bd f76b 19be cd02 853e
00000350: 4fe9 b63e 3418 26bd 7017 77be b8b4 cc3c
00000360: 06d4 473e cfe4 523e 53b8 96be da7f 21be
00000370: 127c 0ebe 6d33 7a3e 9f91 6abd 9d2f 24be
00000380: 7dd3 ecbd a5d6 3d3d 5707 873d bd64 18bd
00000390: fada 06be 6611 953d 3fe5 9e3d 2dfc 5b3e
000003a0: bad6 d0bd 3fb6 54be a5c3 dcbd 6794 c73e
000003b0: 5178 963e 9e36 a9be 8f56 1bbe cf45 80bd
000003c0: 6fee 22bd 557e 953e 17b9 4cbe 1519 9ebe
000003d0: a4dc 19be f054 ee3b a819 933e 32f5 ba3d
000003e0: 940d a23d e93f 68be 6184 ea3d a43b ad3d
000003f0: f384 9abb 5292 293e b316 e93c c2c8 973e

conv1.bias f4 [6]
0.37399888 0.09145805 0.10032929 -0.03480452 0.54784936 -0.5676365
00000000: c87c bf3e 5c4e bb3d 7179 cd3d 2f8f 0ebd
00000010: db3f 0c3f a050 11bf

conv2.weight f4 [16, 6, 5, 5]
-0.071879305 0.08174475 0.00064582477 -0.13850439 -0.18361118 -0.034686152 0.20903939 0.080378205
0.011696361 0.04465477 0.13970844 0.24531199 0.15310024 0.0912999 -0.071048506 0.024860526
0.12406221 0.09981248 -0.12272124 -0.20050944 0.17794587 0.26351443 0.20229058 0.013031416
-0.105893046 -0.060465522 -0.3058488 -0.3391605 -0.19923584 -0.016042529 -0.20271766 -0.37203416
-0.57587576 -0.45515838 -0.15179291 0.017614517 -0.23628281 -0.32922423 -0.41258544 -0.10033715
0.0538877 -0.16757193 -0.17478976 -0.22239953 0.07800248 0.05369551 -0.21995145 -0.23629206
-0.16507636 0.04622393 -0.3713653 -0.22796433 -0.24225609 -0.19504954 -0.013717735 -0.17756972
-0.032231856 -0.054196812 -0.026294136 0.15688023 -0.15076931 -0.10827567 0.16294037 0.011622065
0.05325182 -0.19265875 -0.07292865 0.057801407 0.13633537 0.22380832 -0.07152507 0.0723428
0.16368169 0.096901834 0.1640533 -0.0072743874 -0.16611065 -0.263333 -0.20567305 -0.12269726
0.060377095 0.24834585 0.12570143 0.17138414 0.15897033 -0.06359687 0.22349946 0.29916167
0.34128645 0.114981644 -0.0014940335 -0.11466599 0.2573308 0.19314964 0.13102715 -0.040423155
-0.061008718 0.21082586 0.25287923 0.1746047 -0.27589786 -0.17199157 -0.15974352 -0.04624276
-0.002450643 -0.0768956 -0.1860571 -0.122355394 -0.1467029 0.02088067 -0.02005345 -0.15820876
-0.13427988 -0.089222975 -0.016237967 0.07185942 -0.042266954 -0.06199516 -0.09466855 0.061381083
-0.0011126617 -0.118135326 -0.005410364 0.096219085 0.15338437 -0.06984399 -0.08633684 -0.07447963
-0.14614871 0.021947294 -0.082968496 -0.23948877 -0.19600746 -0.001536962 -0.026623806 -0.17897803
-0.09520429 -0.10818772 -0.053002197 -0.17400971 0.028968887 -0.030590799 -0.021534536 -0.09058975
-0.044912588 0.0007410709 0.04925566 -0.051561493 -0.04593426 -0.03272046 -0.17031431 -0.11576735
-0.12073974 -0.36129677 -0.13401356 -0.010801958 0.16214097 -0.1320831 -0.28313264 -0.16158272
0.1481597 0.020373112 -0.101804525 -0.31222066 -0.10801444 0.1788518 0.14149573 0.011965356
-0.21679233 -0.043892793 0.088249676 0.2411285 0.16582945 0.056512903 0.02978518 -0.17608732
-0.23367205 -0.18324137 -0.46766692 -0.27762303 -0.25948954 -0.026716942 0.07642218 -0.26867822
-0.21851698 0.1332686 0.02967306 0.19106455 0.20223321 0.0914342 -0.1242166 -0.16181366
-0.15367904 -0.166271 -0.17113501 -0.18118986 -0.016919058 0.13695602 -0.049667258 0.057905447
-0.13458803 -0.09832802 0.005372621 -0.23818178 -0.39151144 -0.012701311 -0.060913693 0.17864595
0.21938108 -0.13508764 0.0690859 0.043816775 0.35240528 0.3054612 0.00011903978 -0.05923569
-0.029090881 -0.0022844838 -0.062952906 0.009950482 -0.026829084 -0.11206818 -0.15391755 -0.07289346
-0.089488246 -0.16133793 -0.20506546 0.020844836 0.16138618 -0.26432973 -0.23779416 -0.11033225
-0.04975051 0.14885332 0.008852672 0.09540034 0.03205466 0.1649488 0.3392732 -0.02997264
-0.0072357655 0.028395511 -0.009638194 0.098400705 0.08503753 -0.0448336 -0.033829745 -0.021471275
0.043296225 -0.063485876 0.054770567 0.15408352 0.08400821 -0.2935407 -0.1970853 0.17276746
00000000: 7535 93bd cb69 a73d 914c 293a 18d4 0dbe
00000010: 9204 3cbe 1113 0ebd 6c0e 563e 549d a43d
00000020: 18a2 3f3c ece7 363d bb0f 0f3e 1133 7b3e
00000030: 4fc6 1c3e 71fb ba3d e181 91bd 4da8 cb3c
00000040: 5414 fe3d 7c6a cc3d 4655 fbbd 5952 4dbe
00000050: 7137 363e 5deb 863e 4325 4f3e b881 553c
00000060: 74de d8bd b2aa 77bd 3798 9cbe 72a6 adbe
00000070: 7b04 4cbe 9f6b 83bc 3895 4fbe 437b bebe
00000080: 986c 13bf 850a e9be 9a6f 1bbe 524c 903c
00000090: 1ff4 71be 1490 a8be 663e d3be 907d cdbd
000000a0: 59b9 5c3d fa97 2bbe 16fc 32be b4bc 63be
000000b0: c4bf 9f3d d3ef 5b3d f43a 61be 8cf6 71be
000000c0: c709 29be 4e55 3d3d 9823 bebe 7b6f 69be
000000d0: fb11 78be 11bb 47be 5ac0 60bc d6d4 35be
000000e0: 8d05 04bd 7afd 5dbd cd66 d7bc 36a5 203e
000000f0: 4563 1abe a2bf ddbd d7d9 263e 796a 3e3c
00000100: 951e 5a3d 5648 45be 9e5b 95bd 2bc1 6c3d
00000110: 809b 0b3e 022e 653e bc7b 92bd 7628 943d
00000120: 2c9c 273e 7874 c63d 97fd 273e fc5d eebb
00000130: e918 2abe 95d3 86be f59b 52be b348 fbbd
00000140: f94d 773d 604e 7e3e e0b7 003e 537f 2f3e
00000150: 1ec9 223e 133f 82bd 0bdd 643e b82b 993e
00000160: 19bd ae3e 7f7b eb3d 72d3 c3ba 01d6 eabd
00000170: ddc0 833e 05c9 453e fb2b 063e c092 25bd
00000180: 47e4 79bd bce2 573e 6379 813e 93cb 323e
00000190: 7c42 8dbe 8f1e 30be ce93 23be 0c69 3dbd
000001a0: f89a 20bb 717b 9dbd c185 3ebe 7795 fabd
000001b0: 4939 16be f00d ab3c 2247 a4bc 7a01 22be
000001c0: aa80 09be 89ba b6bd 7c05 85bc 082b 933d
000001d0: 1d20 2dbd a3ee 7dbd 96e1 c1bd bb6a 7b3d
000001e0: bbd6 91ba eff0 f1bd 6c49 b1bb 830e c53d
000001f0: cb10 1d3e 5e0a 8fbd 5fd1 b0bd c788 98bd
00000200: 02a8 15be d0ca b33c 63eb a9bd 8b3c 75be
00000210: 2eb6 48be e373 c9ba 2b1a dabc 0446 37be
00000220: 77fa c2bd 8691 ddbd d518 59bd 9a2f 32be
00000230: 2950 ed3c 8e99 fabc 3269 b0bc 1e87 b9bd
00000240: 43f6 37bd 6d44 423a 4ec0 493d 2532 53bd
00000250: 9025 3cbd e405 06bd e066 2ebe 6f17 edbd
00000260: 6646 f7bd e4fb b8be da3a 09be b2fa 30bc
00000270: 4808 263e cb40 07be c3f6 90be f175 25be
00000280: 2db7 173e 83e5 a63c e47e d0bd 63db 9fbe
00000290: ad36 ddbd ed24 373e 42e4 103e 570a 443c
000002a0: cffe 5dbe eec8 33bd 3fbc b43d 64ea 763e
000002b0: 32cf 293e 137a 673d 0d00 f43c 3c50 34be
000002c0: ba47 6fbe a0a3 3bbe 0a72 efbe 9b24 8ebe
000002d0: d0db 84be 7ddd dabc 3b83 9c3d 3190 89be
000002e0: eac2 5fbe 9077 083e eb14 f33c 6da6 433e
000002f0: 3916 4f3e db41 bb3d 4665 febd 7bb2 25be
00000300: 0a5e 1dbe f242 2abe 043e 2fbe d689 39be
00000310: d699 8abc 333e 0c3e e56f 4bbd 432e 6d3d
00000320: 72d1 09be 3360 c9bd d00c b03b ede5 73be
00000330: 3074 c8be 2919 50bc a380 79bd f7ee 363e
00000340: 6fa5 603e 6a54 0abe e97c 8d3d 3879 333d
00000350: 776e b43e 6965 9c3e ffa4 f938 1fa1 72bd
00000360: 0050 eebc 47b7 15bb 74ed 80bd 5907 233c
00000370: abc8 dbbc 0184 e5bd 909c 1dbe 2b49 95bd
00000380: 9d45 b7bd c535 25be aefc 51be cac2 aa3c
00000390: 6b42 253e 3a56 87be 5080 73be e0f5 e1bd
000003a0: 31c7 4bbd 016d 183e cc0a 113c 4161 c33d
000003b0: bf4b 033d 57e8 283e 38b5 ad3e 2f89 f5bc
000003c0: 001a edbb b49d e83c 84e9 1dbc 4f86 c93d
000003d0: 2828 ae3d 70a3 37bd 0f91 0abd 87e4 afbc
000003e0: 6257 313d e204 82bd 1a57 603d 12c8 1d3e
000003f0: 7f0c ac3d f74a 96be bbd0 49be f4e9 303e

conv2.bias f4 [16]
-0.010036437 -0.07037847 -0.04780409 -0.09573727 -0.20234889 -0.21102351 0.0026155175 0.024007514
0.015759919 -0.28619716 -0.09214369 -0.008087736 -0.11450438 -0.079195805 -0.34024447 -0.19543749
00000000: de6f 24bc 9622 90bd 39ce 43bd e711 c4bd
00000010: 8c34 4fbe 8c16 58be 1a69 2b3b 68ab c43c
00000020: f21a 813c 6f88 92be d5b5 bcbd 6c82 04bc
00000030: 4681 eabd 6931 a2bd 8634 aebe c420 48be

conv3.weight f4 [120, 16, 5, 5]
-0.039533444 0.012390329 -0.00856714 0.021601781 -0.028032098 -0.004299277 -0.009304305 -0.018145364
-0.029961297 0.018756796 0.011618002 -0.023101073 -0.03798634 0.011261908 -0.02322585 -0.0088440105
0.03808845 0.039572988 -0.015050746 -0.035406433 0.036757562 -0.009141907 -0.019991918 0.017228954
-0.028940862 0.029887484 -0.034490798 0.036850132 -0.023011792 0.006370212 0.021509985 -0.0023126057
-0.03724794 0.016021574 0.025865996 0.0071822503 0.03240471 0.019426988 0.0030838083 0.019509256
0.027263321 0.028822392 -0.037640583 -0.005877067 -0.019484092 0.034306586 -0.006133441 -0.007866202
-0.039211605 0.024448175 0.014130221 0.025906399 0.026698656 -0.041315436 0.035924938 -0.0014364701
-0.02803211 -0.014243677 -0.02844452 -0.011146736 -0.027605275 0.0017771953 0.022385536 0.011196126
0.028890358 0.03689749 0.03929421 -0.0015124733 -0.0030740732 0.020349808 0.011209431 0.039664872
-0.0011816786 0.0026175478 0.023322288 -0.00018869861 0.0034433326 0.029803563 0.029355407 0.009992538
0.03722179 -0.021218637 -0.0053171935 0.03995539 0.0025028493 -0.00800764 0.034755018 -0.013009234
0.04028374 0.022629095 -0.01996356 0.0038675328 0.0025056086 0.017944276 -0.010941823 0.036004778
-0.016153261 -0.034294393 -0.0055564707 0.020446548 -0.0076415427 0.034490906 -0.035366908 -0.041064102
0.025602732 -0.034746032 0.035469394 0.038464114 -0.010836238 0.037626296 -0.012541777 -0.021872835
0.039409816 0.015953878 0.01498418 -0.02675556 0.01576828 0.03362853 -0.023943204 -0.040750183
0.0042859837 0.010611296 -0.0077824993 0.036278073 0.03425873 -0.015038366 -0.0181781 -0.020907622
-0.00486821 -0.024924828 -0.02056811 -0.017024573 0.032831743 -0.03054915 -0.034806237 -0.027068624
-0.031421237 -0.006839873 0.022971999 0.037224885 -0.011180715 0.02169796 -0.033127625 0.020320334
0.01761955 0.032292556 0.020795938 -0.006124502 -0.026416436 0.03262905 0.015961085 -0.009603174
0.040256392 0.029798726 -0.018774442 -0.026650399 -0.027252173 0.04069475 -0.010333501 -0.00649132
0.040665206 -0.00532486 -0.003078117 -0.01932641 -0.001103462 0.037495844 0.0005743036 0.039922483
-0.018841276 -0.023499656 -0.031926867 0.00016865743 -0.025018033 0.023060497 -0.0053633754 0.002346456
0.0208778 0.012333856 -0.023710435 0.004841959 -0.017096607 0.028637214 -0.030459154 0.020405581
0.014548106 -0.015464259 0.006590129 0.027505001 -0.009420117 0.014086898 -0.029620493 -0.03312742
-0.01633319 -0.029045727 -0.029878754 -0.038802866 0.030346733 -0.003463559 0.016494354 -0.007218542
-0.0189112 -0.004658058 -0.0149371615 -0.032430153 0.036159057 0.0019652077 0.025544431 0.03912017
-0.033975538 -0.015079525 0.011945011 0.0075309677 0.015525112 0.017074026 -0.0388543 0.03885398
0.03994629 -0.027847765 -0.01728036 -0.023371192 -0.009382386 -0.009687468 0.02400539 -0.017295044
0.024816008 0.041635677 0.0024693822 -0.0071338424 -0.0059683314 0.029383024 -0.031669047 -0.021191908
0.030779917 -0.039817445 0.02779904 0.039049055 -0.024960306 -0.0373781 -0.03183434 0.0062826355
0.03631526 0.012310149 0.02621494 0.014731046 0.011033323 -0.022352 8.4826985e-05 -0.04029928
0.026847478 0.03094169 -0.0004133106 -0.026007675 0.025313072 0.016819445 0.0056466158 -0.0058285263
00000000: d2ed 21bd ce00 4b3c 315d 0cbc 38f6 b03c
00000010: 92a3 e5bc f3e0 8cbb 1571 18bc 96a5 94bc
00000020: 6571 f5bc daa7 993c 6f59 3e3c 763e bdbc
00000030: 9097 1bbd de83 383c 2344 bebc 78e6 10bc
00000040: a202 1c3d 4917 223d 6797 76bc 5606 11bd
00000050: 198f 163d f0c7 15bc 17c6 a3bc bc23 8d3c
00000060: 6315 edbc 99d6 f43c 3946 0dbd 2af0 163d
00000070: 3a83 bcbc 36bd d03b b535 b03c 168f 17bb
00000080: 4c91 18bd ad3f 833c ede4 d33c 1559 eb3b
00000090: cdba 043d 5925 9f3c b819 4a3b e0d1 9f3c
000000a0: 5457 df3c f01c ec3c 032d 1abd 6994 c0bb
000000b0: 1a9d 9fbc 1085 0c3d 08fb c8bb 3ee1 00bc
000000c0: 599c 20bd 8a47 c83c 7182 673c a839 d43c
000000d0: 24b7 da3c 603a 29bd 0726 133d f047 bcba
000000e0: 98a3 e5bc 505e 69bc 7b04 e9bc cda0 36bc
000000f0: 7524 e2bc c7f0 e83a df61 b73c f56f 373c
00000100: 79ab ec3c d321 173d f7f2 203d 2f3e c6ba
00000110: 6476 49bb a4b4 a63c c3a7 373c a277 223d
00000120: 8ee2 9aba 2a8b 2b3b 620e bf3c 66dd 45b9
00000130: 89a9 613b 9a26 f43c c07a f03c beb7 233c
00000140: e075 183d b5d2 adbc da3b aebb 43a8 233d
00000150: d806 243b 7a32 03bc 475b 0e3d af24 55bc
00000160: 9000 253d a760 b93c 9f8a a3bc 6f76 7d3b
00000170: 2335 243b e0ff 923c 5545 33bc bf79 133d
00000180: d853 84bc 4778 0cbd 0e13 b6bb 857f a73c
00000190: e865 fabb 5646 0d3d e4dc 10bd d532 28bd
000001a0: d2bc d13c db51 0ebd 5b48 113d 8c8c 1d3d
000001b0: 7a8a 31bc 081e 1a3d 077c 4dbc a92e b3bc
000001c0: 306c 213d b5b1 823c 3580 753c 7a2e dbbc
000001d0: 7b2c 813c 12be 093d 8a24 c4bc aae9 26bd
000001e0: 7071 8c3b 00db 2d3c 5604 ffbb 5198 143d
000001f0: e252 0c3d 7b63 76bc 3dea 94bc 7646 abbc
00000200: 8185 9fbb 272f ccbc 747e a8bc 1e77 8bbc
00000210: 947a 063d 3642 fabc fc90 0ebd 05bf ddbc
00000220: 8eb3 00bd 0321 e0bb c62f bc3c 1f79 183d
00000230: 512f 37bc ecbf b13c d5b0 07bd d476 a63c
00000240: e056 903c 3345 043d 3e5c aa3c 0cb0 c8bb
00000250: 4867 d8bc 0aa6 053d d2c0 823c a256 1dbc
00000260: e3e3 243d 751c f43c dccc 99bc f051 dabc
00000270: f33f dfbc 8aaf 263d d84d 29bc 24b5 d4bb
00000280: 8f90 263d 2a7c aebb 3cba 49bb 6b52 9ebc
00000290: 0aa2 90ba 3e95 193d dd8c 163a c285 233d
000002a0: 0559 9abc 5a82 c0bc bfc5 02bd a2d9 3039
000002b0: 9ef2 ccbc 5ee9 bc3c 41bf afbb 00c7 193b
000002c0: ec07 ab3c f113 4a3c 633c c2bc 4ca9 9e3b
000002d0: 2f0e 8cbc 9798 ea3c 7a85 f9bc 9b29 a73c
000002e0: 2e5b 6e3c ce5d 7dbc 02f2 d73b 2b52 e13c
000002f0: d656 1abc bccc 663c ada6 f2bc 9eb0 07bd
00000300: 2fcd 85bc 4ef1 edbc 4ac4 f4bc c1ef 1ebd
00000310: b699 f83c e1fc 62bb 2b1f 873c 8589 ecbb
00000320: a9eb 9abc 9fa2 98bb ffba 74bc 7bd5 04bd
00000330: 851b 143d b7ca 003b 8e42 d13c 793c 203d
00000340: ef29 0bbd 1d10 77bc 02b5 433c 56c6 f63b
00000350: 0a5d 7e3c d4de 8b3c b025 1fbd 5a25 1f3d
00000360: b99e 233d ff20 e4bc 8b8f 8dbc f174 bfbc
00000370: 94b8 19bc 30b8 1ebc f4a6 c43c 56ae 8dbc
00000380: f14a cb3c 2c8a 2a3d 5cd5 213b 02c3 e9bb
00000390: fe91 c3bb abb4 f03c 67b7 01bd a79a adbc
000003a0: 2a26 fc3c 9e17 23bd d0ba e33c e7f1 1f3d
000003b0: 8e79 ccbc c719 19bd ba64 02bd 91de cd3b
000003c0: 4fbf 143d 82b0 493c b7c0 d63c 7c5a 713c
000003d0: 1cc5 343c 8b1b b7bc 24e5 b138 dc10 25bd
000003e0: 3eef db3c 6d79 fd3c 9cb1 d8b9 0c0e d5bc
000003f0: 5c5d cf3c efc8 893c 3f07 b93b 39fd bebb

conv3.bias f4 [120]
0.0 0.0 0.0 0.0 0.0 0.0 0.0 0.0
0.0 0.0 0.0 0.0 0.0 0.0 0.0 0.0
0.0 0.0 0.0 0.0 0.0 0.0 0.0 0.0
0.0 0.0 0.0 0.0 0.0 0.0 0.0 0.0
0.0 0.0 0.0 0.0 0.0 0.0 0.0 0.0
0.0 0.0 0.0 0.0 0.0 0.0 0.0 0.0
0.0 0.0 0.0 0.0 0.0 0.0 0.0 0.0
0.0 0.0 0.0 0.0 0.0 0.0 0.0 0.0
0.0 0.0 0.0 0.0 0.0 0.0 0.0 0.0
0.0 0.0 0.0 0.0 0.0 0.0 0.0 0.0
0.0 0.0 0.0 0.0 0.0 0.0 0.0 0.0
0.0 0.0 0.0 0.0 0.0 0.0 0.0 0.0
0.0 0.0 0.0 0.0 0.0 0.0 0.0 0.0
0.0 0.0 0.0 0.0 0.0 0.0 0.0 0.0
0.0 0.0 0.0 0.0 0.0 0.0 0.0 0.0
00000000: 0000 0000 0000 0000 0000 0000 0000 0000
00000010: 0000 0000 0000 0000 0000 0000 0000 0000
00000020: 0000 0000 0000 0000 0000 0000 0000 0000
00000030: 0000 0000 0000 0000 0000 0000 0000 0000
00000040: 0000 0000 0000 0000 0000 0000 0000 0000
00000050: 0000 0000 0000 0000 0000 0000 0000 0000
00000060: 0000 0000 0000 0000 0000 0000 0000 0000
00000070: 0000 0000 0000 0000 0000 0000 0000 0000
00000080: 0000 0000 0000 0000 0000 0000 0000 0000
00000090: 0000 0000 0000 0000 0000 0000 0000 0000
000000a0: 0000 0000 0000 0000 0000 0000 0000 0000
000000b0: 0000 0000 0000 0000 0000 0000 0000 0000
000000c0: 0000 0000 0000 0000 0000 0000 0000 0000
000000d0: 0000 0000 0000 0000 0000 0000 0000 0000
000000e0: 0000 0000 0000 0000 0000 0000 0000 0000
000000f0: 0000 0000 0000 0000 0000 0000 0000 0000
00000100: 0000 0000 0000 0000 0000 0000 0000 0000
00000110: 0000 0000 0000 0000 0000 0000 0000 0000
00000120: 0000 0000 0000 0000 0000 0000 0000 0000
00000130: 0000 0000 0000 0000 0000 0000 0000 0000
00000140: 0000 0000 0000 0000 0000 0000 0000 0000
00000150: 0000 0000 0000 0000 0000 0000 0000 0000
00000160: 0000 0000 0000 0000 0000 0000 0000 0000
00000170: 0000 0000 0000 0000 0000 0000 0000 0000
00000180: 0000 0000 0000 0000 0000 0000 0000 0000
00000190: 0000 0000 0000 0000 0000 0000 0000 0000
000001a0: 0000 0000 0000 0000 0000 0000 0000 0000
000001b0: 0000 0000 0000 0000 0000 0000 0000 0000
000001c0: 0000 0000 0000 0000 0000 0000 0000 0000
000001d0: 0000 0000 0000 0000 0000 0000 0000 0000

fc1.weight f4 [120, 400]
0.0071366867 0.010292784 -0.030563062 -0.004015577 -0.004721193 0.0039945603 -0.018440034 -0.02991668
0.0034093356 -0.0039980556 -0.005131616 -0.0028552527 -0.01667664 -0.005342688 0.0071767853 0.025253162
-0.016344216 -0.026987314 -0.008264144 -0.01256891 -0.013721751 -0.010155547 0.0016716247 -0.003265408
-0.0027894902 0.0045833867 -0.0034845653 -0.010751936 0.0028613696 0.0108862305 0.012716414 -0.016775334
-0.027184099 -0.0021102768 -0.0060869874 -0.009339389 -0.013667924 -0.019944957 -0.00887572 0.007851004
-0.00037697557 0.012690916 -0.025589159 0.010459024 -0.009064266 0.0090505155 -0.007070088 -0.028919745
0.004715672 -0.0035592732 -0.0025698976 0.011640095 0.0014487646 -0.0050870846 -0.007958327 0.010944084
0.0027853833 -0.012813247 -0.020457739 0.0148525145 0.00024896668 0.003238798 -0.013118473 -0.013622223
0.009751418 0.024958044 0.012382748 0.0060794894 0.000981169 0.008286981 0.008786188 0.004440171
-0.006102714 -0.019275948 0.0037642056 0.010080621 -0.01468021 0.00040481312 0.00075853814 0.0019476466
0.013589399 -0.013712048 0.006702663 0.01293312 -0.010053702 0.01235618 0.02728255 0.0027259223
-0.007887896 0.0011396674 0.000390458 0.004575815 -0.010749284 -0.016109403 0.031226901 0.018191935
0.011523695 -0.0086235525 0.010873424 -0.00039272697 -0.0064410567 -0.008122869 -0.007840369 -0.0072047156
0.003804141 0.0120513635 -0.0031825355 -0.0054879566 0.0035348642 -0.02259265 -0.010619391 -0.012956788
-0.009046253 -0.0034931258 0.0037310184 0.0036627722 -0.019779125 -0.008883946 0.005379746 0.0061862255
0.0133485515 -0.024695 -0.0049863667 -0.0008724021 -0.005953479 -0.0030586205 -0.03898036 -0.017260658
-0.002364823 0.009161624 -0.0069398307 -0.008884814 -0.021667669 0.0077392017 -0.0009456656 -0.0022370582
-0.01379253 -0.025767315 -0.006826455 0.0073881675 0.0012907962 -0.03226789 -0.01726687 -0.029660419
-0.02958337 0.0026666406 -0.0127802305 -0.021827469 -0.015457032 0.0011337607 0.00010234407 0.008445199
-0.006016873 -0.015741099 -0.019189853 -0.0140683325 -0.005251132 -0.01175672 -0.004718987 -0.0064855153
0.020134326 0.0065583345 -0.008927194 -0.022999616 0.0023399394 -0.0013426782 0.0023099012 -0.007985045
0.009253006 -0.010106534 -0.004188949 -0.026045414 -0.018680364 0.008286155 -0.005850869 0.014621617
-0.009205617 0.0038567884 -0.02431049 0.00078169483 -0.005851103 -0.012093211 -0.04336558 0.005401196
-0.013895924 -0.00965658 -0.0059747063 -0.01323953 -0.007928473 -0.0034379228 -0.0054433653 -0.021219013
-0.02211944 -0.0011169807 -0.0058690896 0.00904796 -0.02291017 -0.02121761 0.0029631914 0.0047802124
-0.0055478043 -0.00079122104 -0.026377002 -0.003892468 -0.013675674 -0.014446213 0.024924867 -0.03815453
-0.008019706 -0.019100038 0.010940941 -0.010843813 -0.0019984571 0.017891875 -0.01638684 -0.0069717066
0.0052382974 -0.02931253 0.008588123 -0.026797438 0.0035347885 0.0051787817 -0.0011112109 -0.011848075
0.0029612721 0.0075020995 -0.01995637 -0.015240194 -0.013638611 0.0044772564 0.004563624 -0.013046992
-0.02466376 -0.0037599476 0.0010218675 0.0036659592 -0.025025038 -0.020023663 0.016230145 0.0016931342
-0.008094763 -0.021413084 -0.01743304 0.022337064 0.0027180444 0.004089639 -0.0010595245 -0.012837763
-0.0020096502 0.0033871944 -0.008014024 0.002450313 0.019016724 -0.0031429601 0.0077285287 -0.005159352
00000000: deda e93b 11a3 283c 635f fabc 1a95 83bb
00000010: 3db4 9abb cde4 823b 8e0f 97bc d313 f5bc
00000020: 296f 5f3b 1f02 83bb 1d27 a8bb 311f 3bbb
00000030: 739d 88bc b711 afbb 3d2b eb3b b8df ce3c
00000040: 4ee4 85bc 8014 ddbc 5566 07bc d4ed 4dbc
00000050: 32d1 60bc 7463 26bc 6b1a db3a 7500 56bb
00000060: e1cf 36bb 3c30 963b 4e5d 64bb e328 30bc
00000070: d185 3b3b 295c 323c 8258 503c 6d6c 89bc
00000080: 30b1 debc 924c 0abb 5a75 c7bb 3d04 19bc
00000090: 6eef 5fbc 9b63 a3bc 786b 11bc 7fa1 003c
000000a0: cea4 c5b9 8fed 4f3c 5ba0 d1bc 545c 2b3c
000000b0: 4a82 14bc 9d48 143c 32ac e7bb 1ae9 ecbc
000000c0: ed85 9a3b b242 69bb ba6b 28bb 19b6 3e3c
000000d0: 79e4 bd3a 8fb1 a6bb a563 02bc d14e 333c
000000e0: fa8a 363b a7ee 51bc fd96 a7bc f657 733c
000000f0: be87 8239 0342 543b ddee 56bc bf2f 5fbc
00000100: 69c4 1f3c d074 cc3c 02e1 4a3c 7436 c73b
00000110: 929a 803a 1ec6 073c f2f3 0f3c db7e 913b
00000120: 47f9 c7bb 98e8 9dbc e4b0 763b 3029 253c
00000130: 4385 70bc 193d d439 a2d8 463a 2d48 ff3a
00000140: 12a6 5e3c 7fa8 60bc 03a2 db3b 70e5 533c
00000150: 48b8 24bc 9371 4a3c a87f df3c 63a5 323b
00000160: 3c3c 01bc e460 953a 63b6 cc39 b8f0 953b
00000170: c41d 30bc def7 83bc 8fcf ff3c 4107 953c
00000180: e1cd 3c3c cd49 0dbc 7226 323c ece6 cdb9
00000190: 800f d3bb c815 05bc e474 00bc 8915 ecbb
000001a0: e54e 793b 1573 453c 1692 50bb 51d4 b3bb
000001b0: 2ea9 673b 3914 b9bc f4fc 2dbc b548 54bc
000001c0: bc36 14bc edec 64bb 1a84 743b 1f0b 703b
000001d0: d507 a2bc f88d 11bc 9548 b03b d2b5 ca3b
000001e0: e2b3 5a3c 2b4d cabc ad64 a3bb eab1 64ba
000001f0: 6715 c3bb 2373 48bb dfa9 1fbd 3966 8dbc
00000200: 25fb 1abb a31a 163c 8567 e3bb 9c91 11bc
00000210: 6580 b1bc 2199 fd3b 8be6 77ba 9c9b 12bb
00000220: 10fa 61bc fa15 d3bc 74b0 dfbb 7118 f23b
00000230: ef2f a93a 562b 04bd 4073 8dbc 68fa f2bc
00000240: d358 f2bc cec2 2e3b 2c64 51bc 85cf b2bc
00000250: 7e3f 7dbc b29a 943a 8ea1 d638 bb5d 0a3c
00000260: 3029 c5bb 7af3 80bc 0a34 9dbc dd7e 66bc
00000270: b011 acbb 429f 40bc bba1 9abb 7284 d4bb
00000280: bef0 a43c 4ce7 d63b 5e43 12bc b169 bcbc
00000290: ab59 193b cefc afba b661 173b b5d3 02bc
000002a0: ec99 173c e095 25bc 7343 89bb 315d d5bc
000002b0: 9007 99bc a7c2 073c a6b8 bfbb 828f 6f3c
000002c0: 28d3 16bc 2cc2 7c3b cb26 c7bc a7ea 4c3a
000002d0: 9cba bfbb 9a22 46bc 1ba0 31bd 84fc b03b
000002e0: bbab 63bc a236 1ebc 78c7 c3bb 9dea 58bc
000002f0: 6de6 01bc c64e 61bb 425e b2bb 7fd3 adbc
00000300: d433 b5bc a767 92ba 7e51 c0bb e53d 143c
00000310: 1cae bbbc 8ed0 adbc 1a32 423b 54a3 9c3b
00000320: 5bca b5bb f269 4fba 9514 d8bc c718 7fbb
00000330: ef0f 60bc cfaf 6cbc 3c2f cc3c ed47 1cbd
00000340: 1665 03bc af77 9cbc a241 333c 40aa 31bc
00000350: 8cf8 02bb fb91 923c b23d 86bc ea72 e4bb
00000360: 06a6 ab3b d520 f0bc 33b5 0c3c 4d86 dbbc
00000370: e9a7 673b c5b2 a93b 0da6 91ba 6e1e 42bc
00000380: e711 423b 2cd4 f53b 8b7b a3bc 02b2 79bc
00000390: 7b74 5fbc f3b5 923b 748a 953b 0dc3 55bc
000003a0: a70b cabc 7469 76bb 2ff0 853a 9740 703b
000003b0: 4f01 cdbc aa08 a4bc 15f5 843c 28ec dd3a
000003c0: e69f 04bc 7e6a afbc bccf 8ebc 38fc b63c
000003d0: 3821 323b 6102 863b bedf 8aba 7b55 52bc
000003e0: 56b4 03bb b1fb 5d3b 414d 03bc 6e95 203b
000003f0: f6c8 9b3c 1ffa 4dbb 993f fd3b c80f a9bb

fc1.bias f4 [120]
-0.006111129 -1.7040747e-05 -0.026951136 -0.011345383 0.011462369 -0.00791422 0.011209258 0.029824488
-0.0017015744 0.04215891 -0.002445995 0.03726192 -0.0018115281 0.0034371275 0.017505007 0.038847726
-0.002208917 0.0005496962 0.034061436 -0.00800278 -0.0016263536 0.0025928088 0.011206645 0.0060369084
0.007337568 0.024986194 -0.01071999 -0.0057166205 -0.009216485 -0.0068964157 -0.0013787682 0.0024008697
0.014566217 0.0036396568 -0.014953061 0.009184051 -0.0017474728 0.0035579174 0.0012578836 0.04821335
0.0073587615 0.0052579967 -0.0036829002 -0.0021448762 0.00563236 -0.01192624 -0.007564605 0.032511715
-0.003494315 0.009160007 0.021996547 0.0128149 -0.0073909215 -0.0025606435 0.003987921 -0.006675045
-1.2327992e-05 -0.006620717 -0.002467105 0.023835039 0.020781334 0.01931405 0.030780364 -0.013577435
-0.009647217 0.019962754 0.1041193 -0.026885785 0.0047095786 -0.015289494 0.016642172 -0.01449399
0.060376942 0.0025545517 -0.0031810398 0.020767108 -0.03700361 -0.00024119 0.022336766 0.036031242
0.010108779 -0.009267908 0.019038865 -0.029120246 -0.013990112 -0.0011904404 -0.0036064966 -0.0027870885
-0.0021586558 0.007604945 -0.012455071 -0.006977673 0.0027675137 0.02851674 -0.005204933 0.0013036617
0.0005793877 -0.011306913 0.020995472 0.005798834 -0.019955914 0.010873682 0.015692018 -0.009966591
0.016261894 0.032162532 0.0076989736 -0.003349415 -0.0040013874 8.716333e-07 -0.019517567 -0.0031113327
0.011978385 -0.006933887 0.0027817711 -0.0042971885 -0.0015342658 0.03173317 -0.030625246 0.04701658
00000000: de3f c8bb baf2 8eb7 a1c8 dcbc fce1 39bc
00000010: a9cc 3b3c a5aa 01bc 09a7 373c 7c52 f43c
00000020: 5d07 dfba d2ae 2c3d fd4c 20bb f49f 183d
00000030: cc70 edba 6e41 613b a966 8f3c cb1e 1f3d
00000040: 7ac3 10bb 7d19 103a 0184 0b3d 181e 03bc
00000050: 5f2b d5ba 1dec 293b 139c 373c 42d1 c53b
00000060: fb6f f03b d9af cc3c e6a2 2fbc 7d52 bbbb
00000070: bd00 17bc 54fb e1bb c9b7 b4ba e957 1d3b
00000080: 24a7 6e3c 4f87 6e3b affd 74bc b478 163c
00000090: 750b e5ba f32b 693b 92df a43a 5d7b 453d
000000a0: c421 f13b 464b ac3b d05c 71bb 0d91 0cbb
000000b0: a98f b83b 4766 43bc 82e0 f7bb 012b 053d
000000c0: e100 65bb db13 163c 1a32 b43c 96f5 513c
000000d0: 8b2f f2bb 78d0 27bb 1bad 823b 56ba dabb
000000e0: 53d4 4eb7 99f2 d8bb 27af 21bb b341 c33c
000000f0: 9e3d aa3c 8038 9e3c 1a27 fc3c e473 5ebc
00000100: 5c0f 1ebc ee88 a33c 803c d53d 943f dcbc
00000110: cf52 9a3b c980 7abc 2a55 883c 3378 6dbc
00000120: d04d 773d 446a 273b fe78 50bb c81f aa3c
00000130: 1991 17bd f3e7 7cb9 98fb b63c 7f95 133d
00000140: 4b9f 253c 6cd8 17bc 65f7 9b3c 958d eebc
00000150: c836 65bc 8d08 9cba f95a 6cbb 96a7 36bb
00000160: 3c78 0dbb e732 f93b 5b10 4cbc f7a4 e4bb
00000170: 2d5f 353b f09b e93c 258e aabb a1df aa3a
00000180: 0de2 173a a140 39bc b2fe ab3c 2504 be3b
00000190: 967a a3bc 8727 323c 8c8c 803c ea4a 23bc
000001a0: aa37 853c dcbc 033d ac47 fc3b dc81 5bbb
000001b0: 121e 83bb 2ffa 6935 4ee3 9fbc 80e7 4bbb
000001c0: fd40 443c a935 e3bb 604e 363b 6ecf 8cbb
000001d0: 6b19 c9ba a4fa 013d cce1 fabc 7594 403d

fc2.weight f4 [84, 120]
-0.00868296 0.0040032784 -0.039327677 -0.016341778 0.042260136 -0.009827692 -0.0045115943 -0.020708052
0.01653976 0.0019584447 0.01171704 -0.0045401654 0.0026709745 0.014957824 -0.026013633 0.020445274
0.029971711 -0.012919222 -0.017699832 -0.023902873 -0.0057281763 -0.022935603 0.010228652 0.022302946
-0.00012252011 0.0016861385 0.01315417 0.014108051 0.00817812 -0.010239587 -0.0036824462 -0.0075144824
0.009119863 -0.01244465 -0.010228257 -0.011192477 0.0131091215 0.0113990065 0.01771553 -0.011551144
-0.007652375 0.009664738 -0.029566297 0.012935147 -0.0063867904 -0.042521466 -0.035566434 -0.0079089105
0.007412684 0.020787803 0.0056697773 0.028668549 0.008287796 0.007588614 -0.0040427768 -0.028732307
0.017812517 -0.010650878 -0.0012769122 0.0068384507 -0.024123376 -0.048450675 0.009551865 0.0030081703
-0.009404399 -0.03639231 -0.032520954 -0.005800083 0.015084101 -0.005922206 0.012327286 -0.013849371
0.02540327 -0.009013166 -0.0010004276 0.02006628 0.020179205 -0.013131757 0.031861726 0.021556927
0.023813665 0.014612077 -0.0036030528 0.0108103305 -0.022364086 -0.01824548 0.015837772 -0.008357467
0.0017307946 -0.000308379 -0.011323632 -0.0062738247 -0.0021228555 0.010514529 0.009570264 0.00018829571
-0.009440122 0.00033239447 -0.016430633 0.01726168 0.022714337 -0.0036341355 -0.0012168854 -0.01138434
-0.0034097459 0.022422427 -0.029796744 0.011365246 -0.0024879328 0.002717542 0.018730089 -0.006899398
0.005897 0.008840421 -0.0042412416 0.023596132 -0.029564124 -0.02517134 0.04043682 0.00013012467
0.002406741 0.01752531 0.04198508 0.02780164 -0.0041230693 0.053147923 -0.03877245 0.02319808
0.021491218 -0.006376715 0.02215486 0.004853568 0.02212515 0.014383076 -0.0023021041 0.026401037
-0.027660921 -0.015507853 -0.030839266 -0.0524546 -0.008545807 -0.033477858 -0.010128616 0.029604983
-0.0005684263 0.0037820274 0.0002124959 0.005014685 0.019070432 0.017417548 0.0451629 -0.01299504
0.033549517 0.0066718147 -0.0050675673 -0.027290046 -0.0013229632 0.0030151294 0.020896627 -0.028319797
0.017168462 -0.03658481 -0.00996191 0.00045473495 -0.001464464 -0.011388182 -0.038114317 0.04463121
0.025450945 0.023969054 -0.016898323 0.0154586965 0.023224598 -0.000606529 -0.033946108 0.021812147
-0.026492786 0.026488965 0.024465254 0.0004579163 -0.027736412 -0.023391075 -0.008447864 0.0035118435
0.00168269 0.010535742 0.010710244 0.042335555 0.058406573 -0.04185236 0.004652867 0.010245348
-0.027547125 0.00708219 -0.008600449 -0.048485115 0.037143588 -0.030202389 -0.037972037 -0.040202525
0.028316582 -0.0018491636 -0.009762053 0.009634167 -0.0020793618 -0.009595737 -0.015543524 -0.0019741135
-0.0112438 -0.00063464325 0.038251594 -0.019881675 -0.0013962911 0.018195309 -0.0017302906 0.0025778192
-0.03259884 0.025089892 -0.011480043 -0.016609496 -0.0030315658 0.013695584 0.018232359 0.010464575
-0.019150317 -0.026070133 0.04432189 -0.0039311517 -0.0011095637 -0.0014362861 0.009675251 -0.0123554785
0.003612202 0.0066860407 0.013104649 -0.0048600347 -0.0034711543 0.045639098 -0.004505655 -0.00036443837
-0.003023949 -0.006451331 0.13142104 0.10449931 -0.1022644 0.035791256 0.13005975 0.003976521
-0.058823705 0.09232026 -0.06007701 -0.020617545 0.009810626 -0.07389876 0.111413 -0.025353206
00000000: f942 0ebc ef2d 833b 0f16 21bd 31df 85bc
00000010: f718 2d3d 5404 21bc ffd5 93bb efa3 a9bc
00000020: 647e 873c 4059 003b d4f8 3f3c abc5 94bb
00000030: 840b 2f3b a911 753c 8b1a d5bc d97c a73c
00000040: 3c87 f53c 25ab 53bc 3dff 90bc f5cf c3bc
00000050: 6db3 bbbb 72e3 bbbc 1396 273c abb4 b63c
00000060: be78 00b9 6b01 dd3a 9684 573c 7425 673c
00000070: 85fd 053c f1c3 27bc 3255 71bb 0c3c f6bb
00000080: 7a6b 153c a5e4 4bbc 6b94 27bc a760 37bc
00000090: a4c7 563c e6c2 3a3c 2920 913c 0241 3dbc
000000a0: c6c0 fabb d958 1e3c 0535 f2bc f0ed 533c
000000b0: 4848 d1bb fd2a 2ebd 1cae 11bd 6094 01bc
000000c0: 1ae6 f23b 2f4b aa3c 8ac9 b93b 4eda ea3c
000000d0: 89c9 073c e8a9 f83b 4579 84bb 0460 ebbc
000000e0: 8eeb 913c 0581 2ebc 105e a7ba 1515 e03b
000000f0: 639e c5bc 3774 46bd 6d7f 1c3c b924 453b
00000100: e914 1abc 1a10 15bd b134 05bd 9f0e bebb
00000110: 4e23 773c 110f c2bb 63f8 493c 79e8 62bc
00000120: 851a d03c f5ab 13bc c820 83ba 0a62 a43c
00000130: dc4e a53c 9526 57bc 7181 023d 2798 b03c
00000140: e014 c33c 7e67 6f3c 3221 6cbb d01d 313c
00000150: e334 b7bc 8b77 95bc 37be 813c c2ed 08bc
00000160: d4db e23a eead a1b9 c186 39bc a894 cdbb
00000170: 9b1f 0bbb 2245 2c3c 99cc 1c3c 3f71 4539
00000180: beaa 1abc 3b45 ae39 8999 86bc 5e68 8d3c
00000190: 6b13 ba3c ad2a 6ebb e67f 9fba 6285 3abc
000001a0: 0b76 5fbb 3daf b73c 4d18 f4bc 4c35 3a3c
000001b0: 960c 23bb ca18 323b d86f 993c 5814 e2bb
000001c0: 9f3b c13b 6ad7 103c 1dfa 8abb ad4c c13c
000001d0: 7630 f2bc 2034 cebc 14a1 253d 1372 0839
000001e0: 6aba 1d3b 3d91 8f3c 8cf8 2b3d 44c0 e33c
000001f0: d01a 87bb a3b1 593d dccf 1ebd e609 be3c
00000200: 5a0e b03c c3f3 d0bb 1c7e b53c ae0a 9f3b
00000210: cd3f b53c fea6 6b3c e6de 16bb fd46 d83c
00000220: 2899 e2bc a614 7ebc a1a2 fcbc a2da 56bd
00000230: b603 0cbc 1420 09bd 7ff2 25bc 2686 f23c
00000240: 7102 15ba e4db 773b 6fd1 5e39 3a52 a43b
00000250: 9839 9c3c 3faf 8e3c bcfc 383d 26e9 54bc
00000260: 386b 093d 3d9f da3b d60d a6bb 608f dfbc
00000270: 4767 adba 7a99 453b 672f ab3c ebfe e7bc
00000280: e0a4 8c3c f4d9 15bd 4737 23bc 7e69 ee39
00000290: 42f3 bfba 7f95 3abc c21d 1cbd 37cf 363d
000002a0: 807e d03c c05a c43c 5a6e 8abc 7946 7d3c
000002b0: 8341 be3c 79ff 1eba 130b 0bbd 63af b23c
000002c0: 6607 d9bc 63ff d83c 5b6b c83c 7c14 f039
000002d0: 7937 e3bc a49e bfbc e968 0abc f526 663b
000002e0: b58d dc3a 1b9e 2c3c 057a 2f3c 0c68 2d3d
000002f0: bb3b 6f3d 616d 2bbd 1477 983b 1bdc 273c
00000300: 82aa e1bc b711 e83b e6e8 0cbc 5498 46bd
00000310: e023 183d 006b f7bc 9188 1bbd 67ab 24bd
00000320: 2df8 e73c a25f f2ba 05f1 1fbc a0d8 1d3c
00000330: e745 08bb 7037 1dbc 44aa 7ebc 2160 01bb
00000340: ea37 38bc 305e 26ba b4ad 1c3d e5de a2bc
00000350: c103 b7ba 540e 953c ebca e2ba a1f0 283b
00000360: 5c86 05bd 5189 cd3c ca16 3cbc a310 88bc
00000370: 3cad 46bb 7163 603c 075c 953c 9c73 2b3c
00000380: 20e1 9cbc 0891 d5bc df8a 353d e4d0 80bb
00000390: c86e 91ba c441 bcba f284 1e3c a26e 4abc
000003a0: b1ba 6c3b 9316 db3b e2b4 563c ed40 9fbb
000003b0: 4e7c 63bb 10f0 3a3d 2ca4 93bb 1712 bfb9
000003c0: 722d 46bb b065 d3bb 3d93 063e bc03 d63d
000003d0: ff6f d1bd da99 123d 622e 053e 7a4d 823b
000003e0: 20f1 70bd 6812 bd3d 5013 76bd 20e6 a8bc
000003f0: bfbc 203c 3c58 97bd 802c e43d 87b1 cfbc

fc2.bias f4 [84]
0.004387563 -0.0027358532 -0.016723331 0.059490927 0.0017910766 0.010829341 -0.004201335 0.05278606
-0.008813117 -0.024563234 0.014063577 -0.016236804 0.12650159 0.09718275 -0.0045958366 -0.0049283262
0.06146311 0.041611075 -0.013330273 0.06662464 -0.0076687266 -0.0016934624 0.26744696 0.00026179373
0.041591235 0.0936248 -0.024634732 0.021619597 0.2097241 0.17334814 0.15672149 0.023761366
0.0051708394 0.035892855 -0.0087610325 -0.0066751903 0.037603933 0.1360655 0.055872157 0.0065618646
0.16175337 0.017188406 -0.0024652795 -0.03471591 0.03644377 0.024926566 -0.024639657 0.06590168
0.0022266393 -0.037361074 0.1516348 0.084831506 0.01349332 0.00020080351 0.020857789 0.04361731
0.0068630613 0.13264924 0.09804218 0.0006682633 0.048213992 -0.0049186773 0.06312984 0.08111725
-0.00045358384 0.10460103 -0.0062033203 0.005404552 -0.0012242643 -0.0029149905 -0.0044076815 0.091139905
-0.0020945205 0.012742777 0.034488916 0.19218841 0.16021071 0.0159222 -0.008590336 -0.002272827
-0.0011656285 0.00060222566 -0.01341109 0.015333754
00000000: 8cc5 8f3b 004c 33bb 5eff 88bc c2ac 733d
00000010: 8fc2 ea3a 8c6d 313c 5aab 89bb 3236 583d
00000020: e464 10bc d638 c9bc eb6a 663c 0c03 85bc
00000030: a289 013e c007 c73d ac98 96bb cc7d a1bb
00000040: bec0 7b3d 6070 2a3d 3867 5abc 8072 883d
00000050: f149 fbbb 2bf7 ddba cfee 883e 5c41 8939
00000060: 925b 2a3d 5cbe bf3d c7ce c9bc 951b b13c
00000070: eac1 563e 2d82 313e 997b 203e 32a7 c23c
00000080: 2570 a93b 6304 133d 6f8a 0fbc 8ebb dabb
00000090: 9506 1a3d c154 0b3e 34da 643d e904 d73b
000000a0: ada2 253e b3ce 8c3c 8790 21bb 4532 0ebd
000000b0: 1046 153d cc32 cc3c 1bd9 c9bc 76f7 863d
000000c0: cfec 113b ed07 19bd 2746 1b3e 24bc ad3d
000000d0: 1613 5d3c c88e 5239 f4dd aa3c 10a8 323d
000000e0: 88e3 e03b 34d5 073e 57ca c83d 642e 2f3a
000000f0: 097c 453d db2c a1bb 384a 813d cd20 a63d
00000100: fece edb9 1139 d63d 3945 cbbb ab18 b13b
00000110: 7e77 a0ba 6d09 3fbb 506e 90bb 8fa7 ba3d
00000120: 3944 09bb 15c7 503c 4044 0d3d 0acd 443e
00000130: 470e 243e 466f 823c 7bbe 0cbc b6f3 14bb
00000140: 01c8 98ba aede 1d3a 30ba 5bbc 6d3a 7b3c

fc3.weight f4 [10, 84]
0.003968916 0.0051925317 -0.012967858 -0.104549125 -0.0032501193 0.0013792987 -0.037691735 0.013017001
0.05907819 0.0035557128 0.06732125 0.007435651 -0.38233274 -0.22235185 -0.038838066 0.005014093
-0.023914186 0.62352186 0.13120864 -0.03986571 -0.002778604 0.0011868645 -0.0037487494 -0.06499993
-0.023328627 -0.24524815 0.3408213 -0.04391139 0.034126844 -0.01967057 -0.0844001 0.14749728
-0.016611787 -0.018236743 -0.089603476 -0.0070627304 0.14108127 -0.17938006 0.097145826 -0.060822077
-0.29479626 0.016544107 -0.033730403 -0.050478682 -0.27333042 -0.04877644 0.19362931 -0.31603295
-0.016335089 -0.0012007159 -0.10082967 -0.28684902 -0.040426392 0.007416926 0.01981288 0.037510984
0.032326147 -0.060110547 -0.17149879 0.007220966 0.21082339 -0.0005446915 -0.01638993 -0.08295582
-0.001411076 -0.24405806 0.016166545 0.07477866 -0.018637344 -0.17498861 -0.011514759 0.31236246
-0.033916615 0.7042811 -0.048557177 -0.5724444 -0.4872271 0.06745269 -0.06264701 0.2811013
-0.016823428 -0.01799373 -0.012238688 0.02428299 -0.03268565 0.043332174 0.15412892 0.0133943185
0.016041027 -0.019948302 0.034592796 -0.42843696 0.047802087 -0.17217256 -0.18822993 -0.09312865
0.051619522 0.048353937 0.0110236425 0.009280776 -0.48015267 -0.12718773 -0.31436136 -0.14238802
0.022828646 -0.007372468 0.6683715 -0.04043246 -0.018944882 0.1977371 -0.27326486 -0.027723193
0.21756038 0.20946772 0.13777155 -0.13890696 0.036410715 -0.14055133 0.21112569 0.022255927
-0.25250077 0.09755415 -0.56807566 0.1605662 0.01931286 0.031327233 0.009129783 0.41043702
0.04307346 -0.0013810911 -0.36487424 -0.20222877 0.05623089 0.028396951 -0.25290665 0.10734542
-0.084653154 -0.011700017 -0.05402973 -0.17162827 0.090873286 -0.19050829 -0.09491031 0.052647013
-0.44044468 -0.0010666209 -0.09219233 0.13715746 0.023249082 0.060773633 0.0045650885 -0.15455364
-0.0047694584 -0.19531806 0.02870684 -0.40264785 0.0065501435 -0.38456702 -0.2981904 0.21567786
0.33721888 -0.28244385 0.073537126 -0.24476574 -0.024043828 -0.014865849 -0.014899327 -0.03006976
-0.04028822 -0.0430167 0.25028017 -0.18392931 -0.009022184 -0.002820816 -0.074530594 0.002588495
-0.15786217 0.3497172 0.39206782 -0.041189812 0.123712756 -0.22708245 -0.005463367 -0.022685459
0.061825857 -0.2736013 0.28312376 0.13714658 0.0032823896 -0.04029261 -0.11191196 -0.035555042
0.0056258095 -0.0009358085 -0.009786011 0.36039883 0.084357075 -0.0073542944 -0.053645536 -0.11361679
0.03452078 0.26486444 0.16932073 0.029750332 -0.40791845 -0.17341396 0.18149425 -0.01302073
0.10461351 -0.04937458 -0.013367021 0.26165006 -0.19122241 0.0025425986 0.05455038 0.20294346
-0.08560165 0.3012045 -0.34033537 0.18476197 -0.016966643 0.00091457675 -0.10255642 -0.3327309
-0.095432885 -0.19898972 -0.14128079 0.00395558 0.2490182 0.020860616 -0.12164402 -0.22733
0.012014936 0.105809845 -0.04137394 0.11180432 0.012950793 0.087069266 0.01745694 -0.23332293
0.042242188 0.05848599 0.14349899 -0.2460882 0.05119204 -0.1051117 -0.042771664 -0.16147332
0.031470254 0.09789892 0.01920554 0.22505978 -0.032738987 -0.027004318 -0.08348556 0.46276206
00000000: ae0d 823b 1d26 aa3b 2477 54bc da1d d6bd
00000010: f4ff 54bb 96c9 b43a a662 1abd 4245 553c
00000020: f9fb 713d f606 693b b9df 893d c3a6 f33b
00000030: 1ec1 c3be 34b0 63be aa14 1fbd 434d a43b
00000040: afe7 c3bc 219f 1f3f 8f5b 063e 3a4a 23bd
00000050: 3d19 36bb 9090 9b3a 94ad 75bb af1e 85bd
00000060: ad1b bfbc 5522 7bbe 2180 ae3e 6edc 33bd
00000070: 97c8 0b3d 2d24 a1bc f6d9 acbd 8709 173e
00000080: 7115 88bc 3965 95bc 0782 b7bd 7a6e e7bb
00000090: 9c77 103e 68af 37be 64f4 c63d 9220 79bd
000000a0: 89ef 96be 8287 873c e428 0abd bcc2 4ebd
000000b0: f7f1 8bbe cec9 47bd c346 463e 12cf a1be
000000c0: 2ad1 85bc 5761 9dba c97f cebd e0dd 92be
000000d0: 2596 25bd af09 f33b 9f4e a23c 1ea5 193d
000000e0: 6c68 043d 7a36 76bd 619d 2fbe da9d ec3b
000000f0: 16e2 573e a1c9 0eba 2d44 86bc bee4 a9bd
00000100: dbf3 b8ba 5bea 79be b46f 843c 8e25 993d
00000110: 58ad 98bc 3730 33be 66a8 3cbc f9ed 9f3e
00000120: 26ec 0abd c44b 343f e4e3 46bd b78b 12bf
00000130: d575 f9be a324 8a3d 134d 80bd 82ec 8f3e
00000140: 49d1 89bc 9667 93bc c784 48bc 1fed c63c
00000150: 63e1 05bd 147d 313d f9d3 1d3e d873 5b3c
00000160: 7968 833c 9f6a a3bc 2db1 0d3d 175c dbbe
00000170: 1fcc 433d 014e 30be 59bf 40be 3cba bebd
00000180: fe6e 533d c70e 463d 829c 343c 650e 183c
00000190: 92d6 f5be 803d 02be f9f3 a0be 2ace 11be
000001a0: 2403 bb3c be94 f1bb 651a 2b3f 829c 25bd
000001b0: 4c32 9bbc 987b 4a3e 5fe9 8bbe c01b e3bc
000001c0: 26c8 5e3e b57e 563e fc13 0d3e a03d 0ebe
000001d0: 6723 153d b0ec 0fbe 5531 583e 1052 b63c
000001e0: c847 81be 78ca c73d 686d 11bf 776b 243e
000001f0: 0136 9e3c fc50 003d 1695 153c cd24 d23e
00000200: cc6d 303d ba05 b5ba ccd0 babe 0f15 4fbe
00000210: 5d52 663d b9a0 e83c fb7c 81be ead7 db3d
00000220: a25e adbd 6eb1 3fbc 474e 5dbd 52bf 2fbe
00000230: c61b ba3d 9b14 43be 5660 c2bd 65a4 573d
00000240: f781 e1be dccd 8bba 55cf bcbd 0173 0c3e
00000250: dc74 be3c c6ed 783d bd96 953b 4f43 1ebe
00000260: 1e49 9cbb 7501 48be 9b2a eb3c dc27 cebe
00000270: 96a2 d63b f8e5 c4be 69ac 98be a8da 5c3e
00000280: f4a7 ac3e 7b9c 90be a29a 963d dfa3 7abe
00000290: 90f7 c4bc e48f 73bc 4f1c 74bc db54 f6bc
000002a0: 4305 25bd 4732 30bd b924 803e f757 3cbe
000002b0: c8d1 13bc 70dd 38bb 7fa3 98bd bda3 293b
000002c0: 9fa6 21be 220e b33e 1dbd c83e a6b6 28bd
000002d0: 1d5d fd3d 4d88 68be 0b06 b3bb dbd6 b9bc
000002e0: 1c3d 7d3d 7815 8cbe 99f5 903e 2770 0c3e
000002f0: 5c1d 573b dd09 25bd 1932 e5bd 2aa2 11bd
00000300: b658 b83b 0c51 75ba 8155 20bc 3286 b83e
00000310: 67c3 ac3d 4bfc f0bb 6cbb 5bbd ebaf e8bd
00000320: a965 0d3d 509c 873e 6a62 2d3e f8b6 f33c
00000330: b0da d0be 6e93 31be a1d9 393e e654 55bc
00000340: 9c3f d63d 003d 4abd 5a01 5bbc fff6 853e
00000350: cfcf 43be baa1 263b 3870 5f3d 69d0 4f3e
00000360: eb4f afbd 7a37 9a3e 7040 aebe 3e32 3d3e
00000370: a1fd 8abc 35c0 6f3a 1a09 d2bd b45b aabe
00000380: 5172 c3bd f6c3 4bbe e9ab 10be cf9d 813b
00000390: a1fe 7e3e e2e3 aa3c 8020 f9bd 32c9 68be
000003a0: 4bda 443c d5b2 d83d b877 29bd aaf9 e43d
000003b0: 902f 543c 5f51 b23d db01 8f3c 35ec 6ebe
000003c0: 2506 2d3d 018f 6f3d 66f1 123e 8cfe 7bbe
000003d0: bfae 513d ce44 d7bd 5731 2fbd 4359 25be
000003e0: f4e6 003d 3b7f c83d f054 9d3c 1276 663e
000003f0: 5119 06bd 2938 ddbc 7afa aabd 26ef ec3e

fc3.bias f4 [10]
-0.4517387 0.58088434 -0.0755822 -0.16132082 0.071860686 -0.14250761 -0.019703154 -0.0156859
0.026178708 0.18759881
00000000: 4b4a e7be d6b4 143f d7ca 9abd 4931 25be
00000010: b22b 933d 84ed 11be 8268 a1bc b77f 80bc
00000020: bb74 d63c e719 403e
